Navigation/checkpoint_dueling.pth (torch_old, 28957 bytes, 7 tensors)

fc1.weight f4 [64, 37]
0	0xbe583616	-0.21114382
1	0xbd5e1615	-0.054220278
2	0x3d25059e	0.04028856
3	0x3d5ee85b	0.05442081
4	0xbd2d8b0a	-0.042368926
5	0xbcc866af	-0.024463026
6	0xbb2a0978	-0.0025945585
7	0xbc51f541	-0.012814821
8	0x3e2825ec	0.16420716
9	0xbb332db3	-0.0027340471
10	0x3cd827e9	0.026386218
11	0xbd975c48	-0.07390648
12	0xbe0ebe9c	-0.13939899
13	0xbea40212	-0.3203283
14	0xbd673f9c	-0.056457147
15	0x3dfadf93	0.12249675
16	0x3d3921fc	0.045198426
17	0xbd6a6163	-0.05722178
18	0xbda77112	-0.08175863
19	0xbd3848c0	-0.044991255
20	0xbe0400d2	-0.12890938
21	0x3dec4ea2	0.115384355
22	0x3e48599f	0.19565438
23	0x3adf0d6b	0.0017017549
24	0x3e4b27f0	0.19839454
25	0xbd552c16	-0.052043997
26	0x3e7df3a1	0.24799968
27	0x3c494d7c	0.01228654
28	0xbebbe64a	-0.36699134
29	0xbe16084c	-0.14651603
30	0x3d5f72a3	0.054552685
31	0xbce95957	-0.028484983
32	0xbdc5c39b	-0.096564494
33	0xbc91d3a1	-0.017801108
34	0xbe189e64	-0.14904171
35	0xbe859edd	-0.26097766
36	0xbc73c145	-0.014877622
37	0x3d9139a2	0.07091071
38	0xbe3b29f8	-0.18277729
39	0x3e572294	0.21009284
40	0x3e2a2a44	0.16617686
41	0xbe5566d5	-0.20840009
42	0xbd2bd0ea	-0.041947283
43	0xbe012d48	-0.1261493
44	0xbeb25c5e	-0.34836096
45	0x3e31e5e1	0.17372848
46	0x3dc13af9	0.09435076
47	0x3d65111b	0.055924516
48	0xbe688f92	-0.22711018
49	0x3c5edaf5	0.013602008
50	0x3e9a3860	0.30121136
51	0xbec2bb55	-0.38033548
52	0x3cc202bb	0.023682943
53	0xbe3b0393	-0.18263082
54	0x3b1a00c8	0.0023499
55	0xbd1b76b6	-0.03795501
56	0x3d575633	0.05257244
57	0xbe08af6c	-0.13348168
58	0xbdca2ccc	-0.098718256
59	0xbcf339a7	-0.029690577
60	0xbe2b5b4d	-0.16734047
61	0x3d93569a	0.07194252
62	0xbdd1dc0f	-0.10247051
63	0x3d079a2e	0.03310602
64	0x3c2dfd1f	0.010619431
65	0x3a2572e7	0.0006311372
66	0x3e2b85ec	0.16750306
67	0x3da9aafd	0.082845666
68	0xbd5ecfad	-0.054397274
69	0x3e241f6c	0.16027611
70	0xbd95578b	-0.07292088
71	0x3e2ce356	0.16883597
72	0x3df38732	0.11891021
73	0x3c98f42f	0.018671123
74	0x3e4489ed	0.1919324
75	0xbdc6c5a6	-0.09705667
76	0x3e1fc661	0.1560302
77	0xbe10b8a0	-0.14132929
78	0x3e207950	0.15671277
79	0xbf5e41c3	-0.86819094
80	0xbd2379da	-0.03991113
81	0x3dce77b6	0.10081427
82	0x3e318928	0.17337477
83	0xbe78fbd1	-0.2431481
84	0xbc98083e	-0.018558618
85	0x3dba8cd0	0.09108889
86	0xbdc47a82	-0.09593679
87	0xbe8c3d3b	-0.27390465
88	0x3ea0a06f	0.313724
89	0x3d8f2f2f	0.069914214
90	0xbc83c6cf	-0.01608601
91	0x3de2ee86	0.11080651
92	0xbe5f1e3b	-0.21788876
93	0x3ea0f04a	0.31433326
94	0xbe31ffd6	-0.1738275
95	0x3ce31f9f	0.027725039
96	0xbce1a386	-0.027543794
97	0xbdcba44f	-0.09943449
98	0xbd293a8f	-0.04131561
99	0xbf123b19	-0.57121426
100	0x3e15570a	0.14583984
101	0x3e812cce	0.25229496
102	0x3c3483e1	0.0110177705
103	0xbe9f70e2	-0.3114081
104	0xbef944b0	-0.48685217
105	0xbe43d9d7	-0.19126068
106	0x3cc8586f	0.02445623
107	0x3d572a94	0.05253084
108	0x3d7774a7	0.060413983
109	0x3d393e75	0.04522558
110	0xbcc3f683	-0.023921257
111	0x3efd4840	0.49469185
112	0xbeaaf645	-0.33391014
113	0xbde81ce7	-0.11333638
114	0xbef45893	-0.47723827
115	0xc0036682	-2.0531316
116	0x3b286fb2	0.0025701341
117	0xb9841628	-0.0002519351
118	0x3d36534d	0.044513036
119	0x3d253eef	0.04034322
120	0x3c4d4d11	0.012530581
121	0xbcde97b9	-0.027171956
122	0xbce5a5f9	-0.028033243
123	0x3d264e0a	0.040601768
124	0x3c247cf8	0.0100395605
125	0x3d4d2424	0.050083295
126	0xbe2f82e8	-0.1713978
127	0xbd9dcbaf	-0.07704865
128	0x3bed1d06	0.007236126
129	0x3d478c2a	0.048717655
130	0x3e3df01d	0.18548627
131	0x3cab585a	0.020916153
132	0xba0c47c2	-0.0005351269
133	0x3d04b3a4	0.03239788
134	0x3d0bb444	0.03410746
135	0xbc1e891d	-0.009676245
136	0x3da88eb4	0.082303435
137	0xbd49c0b4	-0.04925604
138	0x3de202c5	0.110356845
139	0x3da8f64b	0.08250102
140	0x3da8b411	0.0823747
141	0x3da9868f	0.08277618
142	0x3decd127	0.1156333
143	0x3da4f0fe	0.08053778
144	0x3d864fd6	0.06558196
145	0xbd4e082b	-0.05030076
146	0xbc2da82d	-0.010599178
147	0xba442c40	-0.00074834004
148	0xbddb8d11	-0.10720266
149	0xbc59737e	-0.013272164
150	0xbd2e0a03	-0.042490017
151	0xbd96fbe1	-0.07372261
152	0x3cb7a6f4	0.022418477
153	0x3efa3eda	0.48876077
154	0xbf0cd5e0	-0.5501385
155	0xbf5d9054	-0.8654835
156	0xbf6a234b	-0.914601
157	0xc00888fd	-2.133361
158	0xbcd36c1f	-0.025808392
159	0x3d8f3dd1	0.069942124
160	0x3d387712	0.04503543
161	0x3c9f42f3	0.019441104
162	0xbb2e8e12	-0.0026634973
163	0x3c3667e7	0.011133171
164	0x3c85ab57	0.016317053
165	0x3cfdeda8	0.030997112
166	0x3d86d220	0.06583047
167	0xbb88b4fd	-0.004171966
168	0xbc80338c	-0.01564958
169	0x3dd1b364	0.10239294
170	0x3d32f115	0.043686945
171	0x3db7baf0	0.089712024
172	0x3dde8e61	0.10867
173	0x3d7dc97c	0.06195973
174	0x3da3f190	0.08005059
175	0x3dea9014	0.11453262
176	0x3e3c8733	0.1841095
177	0x3dab8de3	0.08376672
178	0x3d4e76b1	0.05040616
179	0x3d815908	0.063158095
180	0x3e2bcc02	0.16777042
181	0x3d87064a	0.065929964
182	0xbccc0f4d	-0.02490964
183	0x3b9a3e44	0.0047071297
184	0x3c356df0	0.011073574
185	0xbccf782d	-0.025325859
186	0xbe52df3b	-0.20592968
187	0xbe3259db	-0.1741709
188	0x3c6ed0b9	0.014576131
189	0xbd0fac6d	-0.035076547
190	0x3daf7593	0.085673474
191	0x3de10b89	0.10988528
192	0xbdf2fa38	-0.11864132
193	0xbec7d618	-0.39030528
194	0xbf15d0b6	-0.5852159
195	0xbdcedf2e	-0.10101162
196	0xbe023f12	-0.12719372
197	0xbe588e39	-0.21148004
198	0xbe2b44de	-0.1672549
199	0xbe06ebcf	-0.13175891
200	0xbe8f2e81	-0.27965167
201	0x3d5d2d58	0.05399832
202	0xbdd033fb	-0.101661645
203	0xbe1aca6c	-0.1511628
204	0x3cc2f06d	0.023796285
205	0x3d4d5f8b	0.050139945
206	0xbe6e3a09	-0.23264326
207	0xbd4be7a2	-0.04978145
208	0x3dd7c7ea	0.105361775
209	0x3de951c9	0.113925524
210	0xbe5f8be8	-0.21830714
211	0xbdc3f924	-0.09569004
212	0x3c4a4e32	0.012347745
213	0xbe472485	-0.19447525
214	0xbbd5b57a	-0.006521878
215	0xbe053871	-0.13009812
216	0x3b592f50	0.0033139773
217	0xbceec1e7	-0.029145194
218	0xbe7dc983	-0.24783902
219	0xbeb3d3a6	-0.35122412
220	0x3d96dc4f	0.07366239
221	0x3dea56be	0.11442326
222	0x3bd1b11a	0.006399286
223	0x3d6a40eb	0.057190817
224	0xbea4c310	-0.3218007
225	0x3e24e686	0.16103563
226	0x3e1bca20	0.15213823
227	0xbe6b469c	-0.22976154
228	0x3d0e194c	0.034692094
229	0x3d909522	0.07059695
230	0xbe941b76	-0.289272
231	0x3cb57f2c	0.022155367
232	0xbe531e10	-0.20616937
233	0x3cdaf761	0.026729288
234	0x3dd94a88	0.10609919
235	0x3e12159e	0.14266059
236	0x3e39a45d	0.18129106
237	0xbe5a3e2b	-0.21312778
238	0xbe89dcba	-0.26926214
239	0x3e2a7e66	0.1664978
240	0x3d72cafa	0.059275605
241	0x3e472aa6	0.19449863
242	0xbdef7a5f	-0.11693262
243	0xbe186bf8	-0.14884937
244	0x3d834f08	0.064115584
245	0x3c0310d1	0.007999615
246	0x3ea8e04d	0.32983628
247	0x3a6d742b	0.0009058143
248	0xbcf3d499	-0.02976446
249	0xbedcb9ab	-0.43110403
250	0xbe08d525	-0.13362558
251	0x3e0b29d0	0.13590169
252	0xbe0791d7	-0.13239227
253	0xbe8fd828	-0.28094602
254	0x3de8019e	0.113284335
255	0xbd57a6af	-0.052649196

fc1.bias f4 [64]
0	0x3da8efa6	0.08248834
1	0xbdc9d517	-0.09855097
2	0xbe329d50	-0.17442822
3	0xbd21d96c	-0.03951399
4	0x3e887579	0.26652125
5	0xbe4fa662	-0.20278314
6	0xbe569421	-0.20954944
7	0xbe12f5c2	-0.14351562
8	0x3d9dc960	0.07704425
9	0xbe622e20	-0.22087908
10	0x3d45f575	0.04832979
11	0x3d7616d2	0.060080357
12	0x3de38ed6	0.11111228
13	0x3d41bbc9	0.047298227
14	0xbe005eab	-0.12536113
15	0xbd60c7d7	-0.054878082
16	0xbdbee691	-0.09321321
17	0xbdf11be3	-0.11772897
18	0x3cb3a0d2	0.021927271
19	0xbe25e664	-0.16201168
20	0xbe14ef41	-0.14544393
21	0x3dc06b14	0.093954235
22	0xbac2c7f8	-0.0014860621
23	0xbd9138ed	-0.07090936
24	0xbe274d4a	-0.16338077
25	0x3e1bc28c	0.15210932
26	0x3d711b8d	0.058864165
27	0xbd524b69	-0.051341448
28	0x3e5fa36e	0.21839687
29	0x3e1c3c8b	0.1525747
30	0xbae9d895	-0.0017841036
31	0xbe422dad	-0.18962736
32	0x3da2f396	0.079566166
33	0xbd401960	-0.0468992
34	0xbe318909	-0.17337431
35	0x3d6b0b54	0.05738385
36	0x3cac0bbd	0.021001691
37	0x3b8cc297	0.004295658
38	0x3c62e54e	0.013848616
39	0xbe02ed12	-0.12785748
40	0xbd5cb6f6	-0.053885423
41	0xbd3e815b	-0.04651008
42	0xbc81befb	-0.015838137
43	0x3eaa136b	0.3321794
44	0x3cbd2408	0.02308847
45	0xbe056342	-0.13026145
46	0xbcab1606	-0.020884525
47	0xbe8fe559	-0.28104666
48	0xbe1e412e	-0.15454552
49	0x3d1910dd	0.037369598
50	0xbe8dd2e2	-0.27699953
51	0x3d6cea62	0.057840712
52	0xbdac8216	-0.084232494
53	0xbad82739	-0.0016491181
54	0xbe755ad1	-0.23960425
55	0xbd5063c7	-0.050876405
56	0x3d9453ef	0.072425716
57	0xbdc3e61c	-0.09565374
58	0xbdd01991	-0.101611264
59	0xbde47172	-0.111544505
60	0xbc34a77e	-0.011026261
61	0x3dbfade2	0.093593374
62	0x3d36cbc7	0.04462793
63	0x3c7c82b2	0.01541202

fc2.weight f4 [64, 64]
0	0xbd6c1a2c	-0.057642147
1	0x3dbcefe4	0.09225443
2	0x3e09c6c8	0.13454735
3	0x3d9b4198	0.075808704
4	0x3d4e44c1	0.050358538
5	0x3dbcf748	0.09226853
6	0xbdb9c8a9	-0.09071476
7	0x3e48c202	0.19605258
8	0x3e5929fc	0.21207422
9	0xbd7cfe3f	-0.061765905
10	0x3d9cfba9	0.07665188
11	0xbcdfc935	-0.027317623
12	0xbd7623e8	-0.060092837
13	0x3c7c33c2	0.015393199
14	0xbe5fe189	-0.21863379
15	0x3e9ad8b2	0.3024345
16	0x3e250d80	0.16118431
17	0xbb8cfc23	-0.004302518
18	0x3e435b24	0.19077736
19	0xbe650498	-0.22365034
20	0xbe528826	-0.20559749
21	0x3dd9ca58	0.10634297
22	0x3e4d92ac	0.20075482
23	0x3ec3b7c9	0.38226154
24	0xbcb8ea1d	-0.022572571
25	0x3e47761c	0.19478649
26	0x3e66fff8	0.22558582
27	0x3df8db07	0.12151151
28	0x3d0844d8	0.03326878
29	0xbd4113e6	-0.047138117
30	0x3edac7ba	0.42730504
31	0xbd2ad553	-0.041707348
32	0xbe2407a3	-0.16018538
33	0x3e4aa006	0.19787607
34	0xbd5816f0	-0.05275625
35	0xbe62e40a	-0.22157302
36	0x3d1cfe45	0.038328428
37	0x3d2c490e	0.042061858
38	0x3ea07617	0.31340095
39	0x3abed4e0	0.0014559291
40	0xbd8454ac	-0.064614624
41	0xbe9bf5ca	-0.3046096
42	0x3e9188d1	0.28424695
43	0xbe12d4c3	-0.14338975
44	0x3cc131dd	0.023583347
45	0x3cddd5b1	0.027079435
46	0x3b398331	0.0028306956
47	0xb939e266	-0.00017727315
48	0xbe871e60	-0.26390362
49	0xbcfb2b0b	-0.030660173
50	0x3bcaeba5	0.006192642
51	0xbe30d927	-0.17270337
52	0xbd888bbc	-0.06667277
53	0x3d30867a	0.043096997
54	0xbf033d3b	-0.51265305
55	0xbce32626	-0.027728152
56	0xbc233caa	-0.009963194
57	0xbe0fc47f	-0.14039801
58	0x3dd6530e	0.1046506
59	0x3e890bff	0.26766965
60	0x3d9f9de4	0.07793787
61	0x3d09b1e9	0.033616934
62	0xbe738c02	-0.23783877
63	0x3db20b99	0.08693618
64	0x3e9321a2	0.28736597
65	0x3e857e56	0.2607295
66	0xbebc1559	-0.36735037
67	0xbee2779a	-0.44231874
68	0x3e0eb179	0.13934888
69	0x3e4227cc	0.18960494
70	0xbe36a14a	-0.17834964
71	0x3c898179	0.01678537
72	0x3d1221d0	0.035676777
73	0x3d4aea61	0.049539927
74	0x3c781538	0.015141778
75	0x3d092c8a	0.03348974
76	0x3d5f5d25	0.05453219
77	0xbcf1c236	-0.029511552
78	0xbead7a0a	-0.3388217
79	0x3ead7477	0.33877918
80	0x3eacb210	0.337296
81	0x3e7c5c13	0.24644499
82	0x3d58ac0c	0.05289845
83	0x3e2d8feb	0.16949432
84	0x3d61571b	0.05501471
85	0x3db96fa8	0.090545
86	0x3e997d99	0.29978636
87	0xba416152	-0.00073768676
88	0xbe364a2f	-0.17801736
89	0xbec973e3	-0.39346227
90	0xbe8f1ea7	-0.27953073
91	0xbe08fbc2	-0.13377288
92	0x3dcb58f9	0.099290796
93	0xbd778b86	-0.060435794
94	0x3e78c827	0.24295102
95	0xbddfa9ff	-0.10921096
96	0xbda7b349	-0.08188493
97	0xba5babb7	-0.00083797745
98	0xbd3113b2	-0.043231674
99	0x3ccccaf4	0.02499912
100	0x3d190be9	0.037364874
101	0x3d58f731	0.052970115
102	0x3e8b946a	0.27261668
103	0xbcb078ec	-0.021542035
104	0x3e8af1da	0.27137643
105	0xbe22b1d7	-0.15888153
106	0xbe3c02c6	-0.18360433
107	0xbe02784d	-0.12741204
108	0xbd69124d	-0.05690222
109	0xbcf2ee8f	-0.02965477
110	0xbd53d313	-0.051714968
111	0xbe197349	-0.14985384
112	0x3d712f29	0.058882866
113	0xbe2cf30d	-0.16889592
114	0xbdb64423	-0.08899715
115	0x3d659a70	0.056055486
116	0xbd870051	-0.06591857
117	0x3e7a5570	0.24446654
118	0xbd955af1	-0.07292736
119	0xbd80afca	-0.06283529
120	0x3db80b1c	0.08986494
121	0xbd5657c5	-0.052329797
122	0x3e50f54a	0.2040607
123	0x3e5000a0	0.20312738
124	0x3d7eab6e	0.062175207
125	0xbe525357	-0.20539604
126	0xbe0fa8e9	-0.14029278
127	0x3e2a7b9d	0.16648717
128	0xbe10fe1f	-0.1415944
129	0xbd0dcf4c	-0.03462152
130	0xbe9de209	-0.30836514
131	0xbe1cc329	-0.15308823
132	0xbe15696c	-0.14590997
133	0x3dd6529c	0.10464975
134	0xbdc09dd5	-0.09405104
135	0x3e2bf45f	0.16792439
136	0xbd190a92	-0.037363596
137	0x3c6eb937	0.014570526
138	0x3de43269	0.111424275
139	0xbe424978	-0.18973339
140	0x3d864867	0.065567784
141	0xbd7077dd	-0.05870806
142	0xbde9674f	-0.11396658
143	0xbdee2998	-0.11629027
144	0xbe87482a	-0.26422244
145	0x3e57950a	0.21052948
146	0x3cf6498e	0.03006437
147	0x3d31ab06	0.04337599
148	0xbcac9b53	-0.021070158
149	0xbd3de03e	-0.046356432
150	0x3ed3457c	0.4126395
151	0x3dbe951a	0.093057826
152	0x3ccfa937	0.025349243
153	0x3e3b1502	0.18269733
154	0x3e8ce6c7	0.2751982
155	0x3783609c	1.5661404e-05
156	0xbe0b88ae	-0.13626358
157	0x3e338345	0.17530544
158	0x3e117f91	0.14208819
159	0x3e02083a	0.1269845
160	0xbe800ba7	-0.2500889
161	0x3dc7b3ed	0.09751115
162	0xbd7b0640	-0.061285257
163	0x3e10a781	0.14126398
164	0x3c49e474	0.012322534
165	0xbda31099	-0.0796215
166	0x3de21212	0.11038603
167	0x3e04123f	0.12897585
168	0x3b85fa2a	0.00408866
169	0xbeba078b	-0.3633388
170	0xbdfeb2e5	-0.12436465
171	0xbdc137e2	-0.09434487
172	0xbc9a4da1	-0.018835844
173	0x3d998841	0.074966915
174	0x3dab1779	0.083540864
175	0xbda64fe7	-0.08120709
176	0xbd945826	-0.072433755
177	0xbe0d2dfc	-0.13787073
178	0x3c9d66bf	0.019214032
179	0xbe04debe	-0.12975594
180	0xbd4d6111	-0.050141398
181	0xbec4773a	-0.38372213
182	0xbe88daa7	-0.26729318
183	0x3c172145	0.009224241
184	0x3df04a63	0.11732938
185	0xbe5c3a41	-0.21506597
186	0x3e4199ae	0.1890628
187	0x3cd4445c	0.025911503
188	0x3bf907c3	0.007599802
189	0xbe167d5c	-0.14696258
190	0xbea3b6fc	-0.31975543
191	0xbd142b72	-0.036174245
192	0xbe5f5fcd	-0.21813889
193	0xbf1be6c1	-0.6089898
194	0x3d6c4586	0.05768349
195	0x3e157789	0.1459638
196	0xbe820ae7	-0.25398943
197	0x3ec27a96	0.3798415
198	0xbec5a9a1	-0.3860598
199	0xbeaee201	-0.34156802
200	0x3df01e54	0.11724535
201	0xbe7ca517	-0.24672352
202	0x3d2b34c1	0.041798357
203	0x3ef31a04	0.47480786
204	0x3d139391	0.036029402
205	0x3ea98131	0.33106378
206	0xbf2603fe	-0.6484984
207	0xbcadea30	-0.021229833
208	0xbd37a22b	-0.04483239
209	0x3ef26390	0.47341585
210	0xbe072ae9	-0.13199963
211	0xbda09cf0	-0.078424335
212	0xbe8efea9	-0.27928665
213	0x3d0dc9fe	0.034616463
214	0xbea4a822	-0.32159525
215	0x3c144f28	0.009052075
216	0x3e2a1532	0.16609648
217	0x3e1b0c30	0.15141368
218	0x3d5d741b	0.054065805
219	0xbe07a6f5	-0.13247283
220	0xbe7fd8ea	-0.2498509
221	0xbec46cda	-0.38364297
222	0x3e9523d8	0.2912891
223	0xbe09208b	-0.1339132
224	0xbd8736c9	-0.06602246
225	0xbead610f	-0.33863112
226	0xbe1a5632	-0.15071943
227	0xbe5d9772	-0.21639803
228	0xbea22a69	-0.3167298
229	0x3d5764b8	0.052586287
230	0x3e900a81	0.28133014
231	0xbe3ddd02	-0.18541339
232	0x3ecd20b2	0.40064007
233	0x3d8ba9b5	0.068194784
234	0xbd369453	-0.044575047
235	0xbe0bd630	-0.13655925
236	0x3e274a55	0.16336949
237	0xbea6da8e	-0.3258862
238	0x3c373114	0.011181135
239	0xbd9d29d6	-0.07673995
240	0x3de3d397	0.11124342
241	0xbe676db9	-0.2260045
242	0xbeee64ce	-0.46561283
243	0x3e2b1aa4	0.16709381
244	0xbd085c0f	-0.03329092
245	0x3e8169aa	0.25275928
246	0xbe4b63f8	-0.19862354
247	0x3daa0a15	0.08302704
248	0x3dd7dc42	0.10540058
249	0xbebb90c5	-0.36633888
250	0xbec45043	-0.38342485
251	0x3df60823	0.12013271
252	0xbde29bba	-0.11064859
253	0x3ea4f423	0.32217512
254	0x3dbe4337	0.09290164
255	0xbe921fd7	-0.28539917

fc2.bias f4 [64]
0	0xbe50ff20	-0.20409822
1	0xbc3001ce	-0.010742618
2	0x3df80fcf	0.1211239
3	0xbd28a4f5	-0.04117294
4	0x3e19ab89	0.15006842
5	0xbe4cd7b5	-0.2000416
6	0xbdf0067a	-0.11719985
7	0xbcf99ea2	-0.03047115
8	0x3de404db	0.111337386
9	0x3eaf5f69	0.3425248
10	0xbe4b9917	-0.19882618
11	0x3e1dac01	0.15397646
12	0x3d0f8888	0.035042316
13	0xbe11fb7e	-0.14256093
14	0xbe3ba6ba	-0.1832532
15	0x3e7b13c1	0.24519254
16	0xbd06d029	-0.03291336
17	0x3d38c445	0.045109052
18	0x3cb0b3a9	0.021570044
19	0x3e3278e9	0.17428936
20	0x3df8cd78	0.12148565
21	0xbcf79207	-0.030220998
22	0x3e55ad31	0.20866849
23	0xbe077a91	-0.13230349
24	0xbe17992c	-0.14804524
25	0xbe03a370	-0.12855315
26	0x3de506e2	0.111829534
27	0xbced7398	-0.028985783
28	0xbe8d568d	-0.27605096
29	0x3e036e35	0.1283501
30	0xbd95bd99	-0.073115535
31	0xbd6c5e93	-0.05770738
32	0x3f10fc99	0.56635433
33	0x3d4f1087	0.05055287
34	0x3dfd2d4c	0.12362155
35	0x3e089c87	0.1334096
36	0x3d37e20d	0.044893313
37	0xbe3758de	-0.17904994
38	0x3e5472f8	0.20746982
39	0xbe667a7c	-0.22507662
40	0xbdb8acb1	-0.09017313
41	0x3f3832f1	0.7195273
42	0x3de8c84b	0.11366328
43	0xbd9fcab7	-0.07802337
44	0x3aeff1a6	0.001830627
45	0xbe37b33d	-0.17939468
46	0xbe7d252c	-0.24721211
47	0xbdfc38a4	-0.12315491
48	0xbd09d061	-0.03364599
49	0xbe4edb4e	-0.20200846
50	0xbe4fb3db	-0.20283453
51	0x3e95c48a	0.2925151
52	0xbe0896ad	-0.13338728
53	0x3cb8182e	0.022472467
54	0xbd1c8103	-0.038208973
55	0xbe4ba9ad	-0.19888945
56	0xbe9c769b	-0.3055924
57	0xbd948374	-0.07251635
58	0x3e2596d5	0.16170819
59	0x3c6907b5	0.014223029
60	0x3beb9d10	0.007190354
61	0x3e0b7c32	0.13621596
62	0x3e8a3c1b	0.26998982
63	0xbda9305e	-0.082611784

fc3_value.weight f4 [1, 64]
0	0xbe624375	-0.22096045
1	0x3e2e34e0	0.17012358
2	0x3e4462d2	0.19178322
3	0xbeff2956	-0.49836224
4	0x3e18f907	0.14938746
5	0xbcba31b6	-0.022728782
6	0x3dd03a15	0.10167328
7	0xbdfe7c34	-0.124260336
8	0x3d7f9b25	0.062403817
9	0x3e1c2c8e	0.15251371
10	0xbeb285ae	-0.34867615
11	0x3dd48f6a	0.103789166
12	0xbed0c3fb	-0.4077452
13	0x3f393dac	0.7235973
14	0xbe88f0d8	-0.2674625
15	0x3e29bb61	0.16575386
16	0xbe57d06f	-0.21075605
17	0x3e425356	0.18977103
18	0x3ece1696	0.40251607
19	0x3e25be07	0.16185771
20	0x3e73520f	0.23761772
21	0xbe7da8ed	-0.24771471
22	0x3e318a79	0.1733798
23	0xbf1ea024	-0.61963105
24	0xbee1dcd3	-0.44113788
25	0xbd630a42	-0.055429704
26	0xbeb47e0f	-0.35252425
27	0xbf1760b4	-0.5913193
28	0xbe3870d0	-0.18011785
29	0x3dac6781	0.08418179
30	0xbe0667f2	-0.1312559
31	0x3e78b74a	0.24288669
32	0x3ea50d7e	0.32236856
33	0x3c0f50da	0.008747304
34	0x3e68aa10	0.22721124
35	0x3e67eb4a	0.2264835
36	0x3e8f5d97	0.2800109
37	0xbf4daeef	-0.8034505
38	0x3e6505fb	0.22365563
39	0xbea83c15	-0.3285834
40	0x3f01587d	0.5052565
41	0x3eca97e9	0.39569023
42	0x3ebb60e8	0.3659737
43	0x3d98bb1d	0.07457564
44	0xbe448a17	-0.19193302
45	0xbde5a50e	-0.11213122
46	0xbe526ff1	-0.20550515
47	0x3d71ced0	0.059035122
48	0xbe9777ff	-0.29583737
49	0x3ed9e04a	0.4255393
50	0xbdd79784	-0.10526946
51	0x3e4a5427	0.19758664
52	0x3d6b4948	0.057442933
53	0x3e28fce4	0.1650272
54	0xbd0efc8c	-0.034908816
55	0xbcc892cb	-0.024484059
56	0xbe94d577	-0.2906911
57	0xbc376269	-0.011192896
58	0x3e8589fa	0.2608183
59	0x3eaa053c	0.3320712
60	0xbf01a1f5	-0.5063775
61	0x3ec61958	0.3869121
62	0x3e6572ad	0.22407027
63	0x3f03ede5	0.51534873

fc3_advantage.weight f4 [4, 64]
0	0x3e95cd39	0.29258135
1	0xbd58e5e0	-0.0529536
2	0xbe3788bb	-0.17923252
3	0x3ef38845	0.47564903
4	0xbd632441	-0.055454496
5	0xbd5d76e2	-0.054068454
6	0xbb991fd8	-0.0046729855
7	0x3d58bb22	0.05291284
8	0xbd4f32c5	-0.050585527
9	0x3c2bec2d	0.01049332
10	0xbd1e4350	-0.038638413
11	0xbdc7a9cd	-0.09749184
12	0x3eac5086	0.33655185
13	0xbddf6c72	-0.10909356
14	0xbe41baec	-0.18918961
15	0xbe72f224	-0.23725182
16	0x3edfde36	0.4372422
17	0xbe1cb885	-0.15304764
18	0xbd572fd4	-0.052535847
19	0x3d93356c	0.07187924
20	0x3e8a3d1c	0.26999748
21	0x3e79017a	0.2431697
22	0x3dc4a68d	0.096020795
23	0x3eccc4d2	0.39993912
24	0x3f3e6ed6	0.7438787
25	0x3d811ae9	0.06303961
26	0xbf20eaaf	-0.628581
27	0x3eba9670	0.364429
28	0x3c8aa52d	0.016924465
29	0x3e0a671f	0.135159
30	0x3cd72e73	0.026267266
31	0xbded4d94	-0.115870625
32	0xbd68c6a9	-0.056830082
33	0x3e37a0f9	0.179325
34	0xbccb7457	-0.024835749
35	0xbbda8032	-0.006668114
36	0x3d2b4b25	0.04181971
37	0x3e264b87	0.16239749
38	0x3ca81c48	0.020521298
39	0x3da8a1f0	0.08234012
40	0xbde58fb1	-0.112090476
41	0xbcd748e7	-0.02627988
42	0x3e02b85f	0.12765644
43	0xbdbe8f72	-0.09304704
44	0x3e98ce59	0.2984493
45	0x3d0e4fe7	0.03474417
46	0xbd5d8f91	-0.054091994
47	0x3e1fe207	0.15613566
48	0x3cad6229	0.02116497
49	0x3d71396d	0.058892656
50	0xbd8ea9db	-0.06965991
51	0x3d38d569	0.0451254
52	0x3cf1b152	0.029503498
53	0xbc95c47e	-0.018282171
54	0x3dd2b8f3	0.102891825
55	0x3ee0c556	0.43900555
56	0xbe6d7c68	-0.23191988
57	0x3e8be1f2	0.2732082
58	0x3b98732f	0.004652403
59	0xbe09ef1e	-0.13470122
60	0xbe5c7b05	-0.21531303
61	0x3d0d937b	0.034564476
62	0x3de4f48c	0.11179456
63	0xbd06427b	-0.032778244
64	0x3c101dd2	0.008796172
65	0xbdb72d44	-0.089441806
66	0xbd22bf4d	-0.03973322
67	0x3f114be6	0.56756437
68	0xbbed721e	-0.00724627
69	0x3cb478c4	0.022030242
70	0x3d0a8270	0.0338158
71	0x3dc289b2	0.094989195
72	0x3d119694	0.035543993
73	0xbccf46b4	-0.025302269
74	0xbb9be9f4	-0.004758114
75	0x3b83b90e	0.004019863
76	0x3e6cad3d	0.2311296
77	0xbe8d976e	-0.27654594
78	0x3e554799	0.20828094
79	0xbc036929	-0.008020678
80	0xbe605fe7	-0.21911584
81	0xbd1e51cc	-0.038652226
82	0xbd444b88	-0.047923595
83	0xbd0ffa14	-0.035150602
84	0x3e2d849f	0.16945122
85	0xbeb6e655	-0.35722604
86	0x3def3cb7	0.11681502
87	0x3f216810	0.6304941
88	0xbdee8860	-0.11647105
89	0xbc87069a	-0.01648264
90	0x3ee55edd	0.44798937
91	0x3f03e103	0.51515216
92	0x3e00dc58	0.12584054
93	0x3e238e33	0.15972213
94	0xbdce0305	-0.1005917
95	0xbd9c02bc	-0.07617709
96	0xbd3a2738	-0.04544756
97	0x3e9d2b1b	0.3069695
98	0x3c74cb78	0.014941089
99	0x3e0a3c36	0.13499531
100	0x3db1c4c1	0.08680106
101	0xbbb00468	-0.005371619
102	0x3d20e5b9	0.03928158
103	0x3e03c4ba	0.12868014
104	0xbda59dd4	-0.08086744
105	0x3c093875	0.008375277
106	0x3e214ab7	0.15751158
107	0xbe5ffac3	-0.21873002
108	0x3e3b7aa2	0.183085
109	0xbb55ae5f	-0.0032605154
110	0xb977c400	-0.00023628771
111	0x3de4d5d6	0.111735985
112	0x3ddce250	0.10785353
113	0x3e80e838	0.2517717
114	0x3cd0279d	0.025409514
115	0xbbc62e3b	-0.0060479916
116	0x3d976bda	0.07393618
117	0x3c81dfb6	0.015853744
118	0x3ccab166	0.024742793
119	0xbde1d847	-0.1102758
120	0x3e045c54	0.12925845
121	0x3df28944	0.118425876
122	0xbdef4e51	-0.116848595
123	0x3d08a26a	0.033358015
124	0x3afd8c75	0.0019344228
125	0x3e11c53b	0.14235394
126	0x3d01435a	0.031558372
127	0x3dfdba88	0.12389094
128	0xbcfe1a4a	-0.031018395
129	0xbbdfec93	-0.0068336218
130	0x3dc41e90	0.09576142
131	0xbf124b06	-0.57145727
132	0x3dcb3365	0.09921912
133	0xbdc2daf9	-0.09514422
134	0x3d520573	0.051274728
135	0xbdd6267f	-0.10456561
136	0x3e5f6a9a	0.21818009
137	0x3d8e5ed7	0.06951683
138	0x3e9a1364	0.3009292
139	0x3e99a982	0.30012137
140	0xbdb4ab40	-0.08821726
141	0xbe3b7dc7	-0.18309699
142	0x3dcc5532	0.09977187
143	0xbb8b9d99	-0.0042607305
144	0x3d9c52b5	0.076329626
145	0x3d63c921	0.055611733
146	0xbe3e4f05	-0.18584831
147	0x3d09a60e	0.033605628
148	0x3c47fd71	0.012206421
149	0x3ca0f06d	0.019645894
150	0x3e102e58	0.14080179
151	0x3e135c77	0.14390741
152	0xbe9355b6	-0.2877633
153	0xbba21d82	-0.0049473653
154	0x3d8cf3e4	0.06882456
155	0xbde5dccc	-0.11223754
156	0xbced438d	-0.028962875
157	0xbe88dc46	-0.26730555
158	0x3e6faad5	0.23405011
159	0xbe65dfe3	-0.22448687
160	0xbc3f2d8b	-0.011668573
161	0x3b18f08a	0.0023336732
162	0xbcf021bf	-0.029312966
163	0xbdee26a7	-0.11628466
164	0xbd3e403d	-0.04644798
165	0x3e05871d	0.13039823
166	0x3d2499b8	0.04018566
167	0x3e04f2b6	0.12983212
168	0x3e7dccde	0.24785182
169	0x3ca680d8	0.02032511
170	0xbe989ce2	-0.29807192
171	0x3e4a5eb0	0.19762683
172	0xbee3b5f3	-0.44474754
173	0x3cfb6b6b	0.03069087
174	0x3e888102	0.26660925
175	0xbf086833	-0.53283995
176	0x3cb77946	0.022396695
177	0x3d5a188b	0.053246062
178	0x3d2da008	0.042388946
179	0x3d8f7e3d	0.070065
180	0xbb96596d	-0.004588297
181	0x3e08b644	0.13350779
182	0x3e3b5ef4	0.1829794
183	0xbe88f710	-0.26750994
184	0x3c81081b	0.015750935
185	0xbf1735e9	-0.59066635
186	0xbdbf884d	-0.09352169
187	0x3d9a7653	0.075421
188	0xbe2b6630	-0.167382
189	0xbdff75c4	-0.12473634
190	0xbe1d8b0d	-0.15385075
191	0x3e9466c6	0.2898466
192	0x3e27aad4	0.1637376
193	0x3d995905	0.07487682
194	0x3d1f3d26	0.038876675
195	0xbe600667	-0.21877442
196	0xbe392123	-0.18079047
197	0x3e801959	0.2501934
198	0xbddeff63	-0.10888555
199	0xbe0a4751	-0.13503768
200	0xbcb81477	-0.022470696
201	0x3d6fc638	0.058538646
202	0xbe1e762e	-0.1547477
203	0xbe550d98	-0.20805967
204	0xbe4473ae	-0.19184753
205	0x3cf643c5	0.030061612
206	0x3e342c14	0.1759494
207	0x3e4de6c8	0.20107567
208	0xbe8190db	-0.25305828
209	0x3dfaee59	0.122524925
210	0x3e7e147f	0.24812506
211	0xbdd2c155	-0.102907814
212	0x3d0131a3	0.031541478
213	0x3e77572e	0.2415435
214	0xbd41a8ff	-0.047280308
215	0xbd981f96	-0.074278995
216	0x3dabc4a8	0.083871186
217	0x3d1f5563	0.03889979
218	0x3e198485	0.14991958
219	0x3f1d9298	0.6155181
220	0x3d80e4a0	0.06293607
221	0xbd16c254	-0.03680642
222	0xbe7eed55	-0.24895222
223	0x3ead72c2	0.33876616
224	0xbdefbc29	-0.117058106
225	0xbed19d8c	-0.4094051
226	0x3e201704	0.1563378
227	0x3d7fc278	0.06244132
228	0xbe63add5	-0.2223428
229	0x3f3e2993	0.7428219
230	0xbd9f25ea	-0.077709034
231	0xbd5dcedf	-0.054152366
232	0x3cf666a4	0.03007824
233	0xbc44c861	-0.012010665
234	0x3da62350	0.08112204
235	0x3e2df896	0.1698936
236	0xbe7ba6a7	-0.24575292
237	0x3e66b8c5	0.22531421
238	0xbe3b8254	-0.18311435
239	0x3cf0bf8d	0.029388214
240	0xbd4de506	-0.050267242
241	0xbe8a9018	-0.2706306
242	0x3d8f997d	0.070116974
243	0xbd85d64b	-0.06535014
244	0x3d670493	0.056400847
245	0x3e69fa26	0.2284933
246	0xbdfd836e	-0.12378584
247	0x3d087e53	0.033323597
248	0x3da0efd9	0.07858247
249	0x3f2bcb0b	0.67106694
250	0xbcd2f451	-0.025751265
251	0xbe07cbd5	-0.1326135
252	0x3e95b20c	0.292374
253	0xbc07a304	-0.008278612
254	0x3c257aff	0.010100125
255	0xbf44caee	-0.76872146

fc3_advantage.bias f4 [4]
0	0x3da9f352	0.08298363
1	0xbe3b35e4	-0.18282276
2	0xbe2ccf53	-0.16875963
3	0xbc24250f	-0.010018601
